pgdrive/examples/ppo_expert/expert_weights.npz (npz, 511659 bytes, 6 tensors)

default_policy/fc_1/kernel f4 [275, 256]
0.11259406 0.064982004 0.054109603 0.2085061 0.11653174 -0.07643549 0.093352675 -0.01589071
0.037277117 -0.019224936 0.0027701377 0.11025587 0.061605 0.0168168 0.030073944 -0.04492386
0.08952964 -0.19548759 0.040699985 -0.059686694 -0.2139269 0.12846945 0.11409986 -0.20288086
0.32399336 -0.17343351 0.043645624 -0.0564696 0.022946244 0.056830466 0.028526282 0.026656933
-0.010140339 -0.13036211 0.022844357 0.0030967202 0.054156028 0.038823765 0.08604175 -0.04329236
-0.03297624 -0.09616295 -0.13068843 0.15756631 -0.014550346 -0.05461922 0.056137923 0.035877615
-0.117119215 0.03777398 -0.014028683 0.077598915 -0.036155947 -0.14557242 -0.008246401 -0.05554453
0.007924262 0.03323757 0.042810004 -0.030828532 -0.07013331 -0.12205481 -0.04669144 -0.067134775
0.05467397 -0.035248175 -0.133848 0.019262923 -0.0679862 0.09359189 0.05123563 0.01548487
0.14986616 -0.0668631 -0.03753232 0.028122397 -0.07327569 -0.016775014 -0.010969497 0.039230708
-0.071431704 0.052309044 0.033289973 -0.22150074 0.091288984 0.121376306 0.21746288 -0.06788886
-0.03103892 0.07844435 0.014321347 0.13626117 0.00017316772 0.12956269 -0.0296599 0.04888971
-0.099865094 0.1616413 -0.005397126 0.059607893 0.11830281 -0.039746534 -0.18771186 0.1007206
-0.16125277 0.14311443 -0.116590165 -0.0631904 0.21715122 0.093625896 0.115541324 0.057539508
-0.05264317 0.16920008 -0.03824208 0.0668335 -0.018049728 -0.018991021 0.039616738 0.11587031
0.016821038 0.11896631 0.03577069 0.09247772 0.11581533 -0.17668356 0.0029350405 0.13380027
0.078501746 -0.040820576 -0.10457805 -0.063530006 -0.07233105 -0.04152151 -0.11494815 0.05447499
0.004732521 0.0050738575 -0.042160567 -0.072542235 -0.19672191 0.036871206 0.013145208 0.06862422
0.13068767 0.06313763 -0.066954054 0.259932 -0.08620898 -0.10069951 -0.054256797 0.18220066
-0.064934656 -0.108695395 0.11111993 -0.12039992 0.052674845 -0.13106456 -0.10397322 -0.049683146
-0.033646416 0.084193595 0.0061687073 0.03112938 -0.120694734 0.055794597 -0.11197107 -0.10762618
0.10963806 0.034988865 0.04502741 0.06349923 0.109927244 -0.015947886 -0.051340885 0.061303556
-0.10937482 -0.0664109 0.0018275364 -0.14414775 -0.040427726 -0.09690791 0.022100305 -0.22376864
0.055828188 -0.11088168 -0.08561749 -0.012027839 -0.095075965 0.129149 -0.08727811 0.030042518
-0.055859566 -0.091545895 0.057592902 -0.019400349 0.07568165 0.07374966 0.16854414 -0.010905066
0.026160141 0.11012998 0.0786632 -0.01741929 0.052128635 -0.15360565 -0.06443335 -0.07425753
0.044359718 -0.14204526 0.090084404 0.08972504 0.091414005 -0.02613403 -0.068976365 -0.016753914
-0.03150183 0.049001314 0.12798408 -0.019790927 -0.017407158 0.11244994 -0.055474203 0.038809504
-0.27740115 -0.00588503 0.035846345 0.03486415 -0.16406988 0.19799179 -0.132286 -0.020043205
-0.049638513 -0.06346509 0.016668938 0.06317426 0.11583924 -0.08880586 0.0063117584 0.12967382
-0.015598255 -0.025127422 0.02257186 -0.00469133 -0.009555223 -0.08588655 0.08637611 0.07434033
-0.124346055 -0.096106306 0.15954709 -0.081481814 -0.047715917 -0.03450788 0.10647001 0.09269714
00000000: b797 e63d 4915 853d 08a2 5d3d a082 553e
00000010: 31a8 ee3d 368a 9cbd b02f bf3d 3c2d 82bc
00000020: e4af 183d 9d7d 9dbc 338b 353b d4cd e13d
00000030: 8655 7c3d 63c3 893c a25d f63c 1502 38bd
00000040: 515b b73d e62d 48be 07b5 263d 097a 74bd
00000050: a70f 5bbe 7f8d 033e 30ad e93d 00c0 4fbe
00000060: 75e2 a53e 8e98 31be c1c5 323d ab4c 67bd
00000070: c3f9 bb3c 10c7 683d f3af e93c a45f da3c
00000080: aa23 26bc a57d 05be 1724 bb3c 58f2 4a3b
00000090: b6d2 5d3d ab05 1f3d a836 b03d 5453 31bd
000000a0: 1812 07bd 15f1 c4bd 30d3 05be 1059 213e
000000b0: 9364 6ebc 67b8 5fbd e1f0 653d 68f4 123d
000000c0: 33dc efbd e4b8 1a3d 90d8 65bc 2eec 9e3d
000000d0: 4218 14bd f010 15be ea1b 07bc a982 63bd
000000e0: c4d4 013c 1e24 083d 8b59 2f3d 1e8c fcbc
000000f0: 0ea2 8fbd dff7 f9bd 863f 3fbd f57d 89bd
00000100: d0f1 5f3d 6460 10bd 730f 09be 47cd 9d3c
00000110: 593c 8bbd 1bad bf3d 74dc 513d 41b4 7d3c
00000120: 8476 193e 85ef 88bd 7dbb 19bd f160 e63c
00000130: 9111 96bd c16b 89bc 68b9 33bc 61b0 203d
00000140: c94a 92bd 0242 563d 115b 083d 17d1 62be
00000150: b8f5 ba3d 2494 f83d 97ae 5e3e 5109 8bbd
00000160: 5545 febc 6ea7 a03d 15a4 6a3c 0c88 0b3e
00000170: 5b94 3539 15ac 043e 52f9 f2bc 9440 483d
00000180: 1286 ccbd 4c85 253e 60da b0bb 6827 743d
00000190: be48 f23d 43cd 22bd 8a37 40be 9a46 ce3d
000001a0: 721f 25be 978c 123e d3c6 eebd f869 81bd
000001b0: e45c 5e3e efbe bf3d eea0 ec3d 8cae 6b3d
000001c0: 5da0 57bd c942 2d3e baa3 1cbd 01e0 883d
000001d0: 06dd 93bc 0f93 9bbc 2945 223d 6a4d ed3d
000001e0: 46cc 893c 9ca4 f33d 4984 123d f564 bd3d
000001f0: 9630 ed3d 89ec 34be cf59 403b f002 093e
00000200: 86c5 a03d 7a33 27bd 042d d6bd 051c 82bd
00000210: 4d22 94bd 7512 2abd f069 ebbd 2b21 5f3d
00000220: 4313 9b3b 9a42 a63b 8fb0 2cbd 0691 94bd
00000230: 7871 49be 4306 173d 005f 573c db8a 8c3d
00000240: fdd2 053e 4d4e 813d 351f 89bd cf15 853e
00000250: 558e b0bd 8b3b cebd 603c 5ebd cf92 3a3e
00000260: 76fc 84bd b19b debd d992 e33d 3c94 f6bd
00000270: 94c1 573d ca35 06be e9ef d4bd 8e80 4bbd
00000280: d3d0 09bd b16d ac3d de22 ca3b 0b03 ff3c
00000290: cd2e f7bd e088 643d 1751 e5bd 1d6b dcbd
000002a0: eb89 e03d 7c50 0f3d a96e 383d e20b 823d
000002b0: 8921 e13d 24a5 82bc d24a 52bd 7019 7b3d
000002c0: e8ff dfbd 7002 88bd f289 ef3a 789b 13be
000002d0: 8b97 25bd a877 c6bd b30b b53c 9b23 65be
000002e0: 19ac 643d ef15 e3bd 3958 afbd 6a10 45bc
000002f0: 30b7 c2bd a33f 043e debe b2bd ba1b f63c
00000300: 00cd 64bd 6a7c bbbd 89e6 6b3d 7bed 9ebc
00000310: fbfe 9a3d 100a 973d d696 2c3e 29ab 32bc
00000320: cb4d d63c d48b e13d 2c1a a13d e6b2 8ebc
00000330: d684 553d cd4a 1dbe a2f5 83bd 5514 98bd
00000340: 89b2 353d 5074 11be 2c7e b83d c3c1 b73d
00000350: 4437 bb3d 0917 d6bc 7b43 8dbd 813f 89bc
00000360: 1008 01bd 9ab5 483d 420e 033e 9520 a2bc
00000370: 7599 8ebc 274c e63d eb38 63bd b7f6 1e3d
00000380: 8607 8ebe 36d7 c0bb 9ed3 123d b6cd 0e3d
00000390: ef01 28be 5cbe 4a3e fb75 07be a631 a4bc
000003a0: c151 4bbd fcf9 81bd 4c8d 883c 8261 813d
000003b0: 203d ed3d d9df b5bd ded2 ce3b 37c9 043e
000003c0: d38f 7fbc 06d8 cdbc 9fe8 b83c bab9 99bb
000003d0: 838d 1cbc 4ae5 afbd f5e5 b03d be3f 983d
000003e0: 25a9 febd 62d3 c4bd 5060 233e f0df a6bd
000003f0: c471 43bd 2358 0dbd f30c da3d 00d8 bd3d

default_policy/fc_1/bias f4 [256]
0.0019960776 0.0036767605 0.0042136596 -0.004671437 -0.012735732 0.0042986996 -0.0038178363 -0.009911022
0.015084537 -0.0008608038 0.0031856338 0.0021139816 -0.0024641228 -0.0013926262 -5.8739883e-05 0.0033763458
-0.0004333617 0.0044518765 0.002437951 -0.00658298 0.000542496 -0.00012157276 -0.0018875337 -0.002466243
0.0032683848 0.0021519444 0.0047824387 -0.0033508814 0.0015497677 -0.009807508 -0.0046027526 -0.007019481
0.007061596 0.007360261 0.014253058 0.0068608974 -0.0075642513 0.016673164 0.007413786 -0.0014999384
-0.006649059 -0.00036595904 0.0028329163 -2.8904951e-06 0.0020035552 0.0020360374 0.012034405 0.008302609
-0.004370808 0.007506499 -0.014167396 0.0042680744 0.01308754 0.0011413299 -0.010607063 -0.0062592844
-0.0070422892 -0.0036025129 0.008174964 0.0034749112 -0.0023262626 -0.0045044436 -0.006448765 0.008364105
0.0010466846 0.0008949986 0.00073180423 -0.002892738 0.0051775766 -0.005246196 0.009199788 -0.0021590749
-0.00058497273 -0.0040525203 -0.00092971296 0.006536851 0.0048204083 0.009328356 -0.0026364394 -0.008837293
0.0011805996 0.0008913294 0.009196263 -0.0027065375 0.0009858782 -0.01160635 0.0075726127 -0.020517837
-0.0057362984 0.020194717 -0.0049807997 0.005255105 0.003689408 -0.0054707695 0.0025786937 0.0061506764
0.008229952 -0.0013097982 -0.000619933 -0.026908051 -0.010026419 -0.004331411 0.014815945 -0.007292377
0.0028139304 -0.0072975056 0.013311992 0.0022069768 -0.0045695854 -0.01073298 -0.0018168493 0.00044805923
0.004569669 0.015489346 -0.01659867 0.003540696 -0.0039711096 -0.0011994259 0.026767673 0.028642366
0.001318616 -0.0035216003 -0.0013601816 -0.010758248 0.0035002783 0.0071501704 -0.0020768747 -0.0066870577
-0.0060388367 0.0013402104 0.022179944 -0.0037529697 0.0057502026 0.005748351 -0.0057035014 0.005763493
0.006179678 -0.0053839455 0.003987394 0.007373099 0.009485195 -0.0010133651 -0.0039324723 -0.00014253003
-0.004291981 0.0042118905 -0.00081161206 -0.0074043255 0.0022836043 0.012046538 0.0066828146 -0.0044279224
-0.008273805 -0.006207201 -0.0009620303 0.0012132247 0.0042384393 0.016889568 -0.0008197359 0.0011912006
0.006132105 -0.0054979627 0.0045517418 -0.0015778582 0.019613964 -0.0014549657 -0.03321596 -0.0013430344
-0.0015784699 -0.003845424 -0.009611922 0.0018317689 0.0020493814 0.002419653 -0.0027539376 0.0028887752
0.0039049303 -0.0040977127 -0.0016549951 0.0049440474 0.0013123819 0.0033801137 -0.00534938 -0.0025176837
0.0023232736 -0.0041257553 0.00916816 -0.009828321 -0.0014372065 0.016639365 0.0125934305 -0.008152567
0.010148813 -0.006313167 -0.006459642 0.0074606007 0.014729466 0.00049961667 -0.0063837953 0.0025004942
0.0104556605 0.0068310327 -0.0033283848 -0.010029892 0.0017818591 0.0064123464 0.0022260363 8.841033e-06
-0.006901908 -0.0032276267 -0.00491401 -0.007850426 0.0122584505 0.0063437806 0.00026840682 0.0064078104
-0.007525931 -0.0065288683 0.0048797242 0.0020998043 -0.0034028601 0.0039785774 -0.0014552114 0.005272903
-0.0038987098 -0.0008243088 -0.0020980008 -0.004880207 0.0064568524 -0.0059746574 -0.00461038 0.0018126018
0.0075186933 0.00074617856 0.00426096 0.0023865881 0.0025283673 -0.00021749547 -0.007665612 -0.010726379
-0.0063013886 0.00021379828 -0.006900897 -3.2235086e-05 -0.005063402 -0.004085009 -0.0028486273 0.00505001
0.016526384 -0.011260631 0.004480261 -0.014620374 0.0072894203 0.0029737991 0.00029536302 0.0020729974
00000000: a0d0 023b cef5 703b bd12 8a3b db12 99bb
00000010: 88a9 50bc 1bdc 8c3b aa34 7abb d761 22bc
00000020: 2225 773c 91a7 61ba 11c6 503b ba8a 0a3b
00000030: 1f7d 21bb c888 b6ba 785f 76b8 af45 5d3b
00000040: d334 e3b9 0ce1 913b 08c6 1f3b 0ab6 d7bb
00000050: 4a36 0e3a e1f4 feb8 1f67 f7ba b1a0 21bb
00000060: 6632 563b a307 0d3b 01b6 9c3b 769a 5bbb
00000070: 9321 cb3a acaf 20bc b0d2 96bb ad03 e6bb
00000080: f664 e73b 582e f13b a885 693c 61d1 e03b
00000090: 8add f7bb 2996 883c 58ef f23b 9599 c4ba
000000a0: 59e0 d9bb 31de bfb9 73a8 393b 54fa 41b6
000000b0: 144e 033b 0a6f 053b f42b 453c ab07 083c
000000c0: ff38 8fbb 14f9 f53b 5e1e 68bc 34db 8b3b
000000d0: 1f6d 563c ad98 953a 3fc9 2dbc af1a cdbb
000000e0: 01c3 e6bb 2318 6cbb 49f0 053c 56bb 633b
000000f0: 3674 18bb 039a 93bb 2950 d3bb 9909 093c
00000100: e830 893a 579e 6a3a 8dd6 3f3a 1794 3dbb
00000110: a9a8 a93b 48e8 abbb b5ba 163c 447f 0dbb
00000120: db58 19ba 01cb 84bb fbb7 73ba 1533 d63b
00000130: 84f4 9d3b f6d5 183c 1dc8 2cbb 4bca 10bc
00000140: 59be 9a3a 1aa8 693a ecab 163c 2a60 31bb
00000150: 9538 813a 8f28 3ebc ae23 f83b 0615 a8bc
00000160: 8ff7 bbbb 646f a53c fa35 a3bb 0433 ac3b
00000170: ffc9 713b 2444 b3bb 4dff 283b 9d8b c93b
00000180: ecd6 063c 89ad abba 0083 22ba 466e dcbc
00000190: d945 24bc 82ee 8dbb 94be 723c e4f4 eebb
000001a0: eb69 383b ea1f efbb 8b1a 5a3c eda2 103b
000001b0: 76bc 95bb 62d9 2fbc 5923 eeba 7ee9 ea39
000001c0: 29bd 953b 07c7 7d3c eff9 87bc 060b 683b
000001d0: 1520 82bb 0e36 9dba e147 db3c 65a3 ea3c
000001e0: 69d5 ac3a a6ca 66bb 1f48 b2ba 5d43 30bc
000001f0: ed64 653b fa4b ea3b 2d1c 08bb 1b1f dbbb
00000200: 6fe1 c5bb 00aa af3a b7b2 b53c 62f4 75bb
00000210: 326c bc3b aa5c bc3b 70e4 babb afdb bc3b
00000220: e57e ca3b cf6b b0bb afa8 823b 0a9a f13b
00000230: cb67 1b3c e4d2 84ba f8db 80bb 1d74 15b9
00000240: bfa3 8cbb e603 8a3b 5dc2 54ba fc9f f2bb
00000250: 86a8 153b d85e 453c 83fb da3b 1b18 91bb
00000260: da8e 07bc c765 cbbb c330 7cba 1105 9f3a
00000270: 9be2 8a3b fe5b 8a3c 8ce3 56ba 0f22 9c3a
00000280: d3ef c83b 4128 b4bb c726 953b 23d0 ceba
00000290: 77ad a03c 8cb4 beba 750d 08bd c208 b0ba
000002a0: a9e4 ceba 8203 7cbb 537b 1dbc f717 f03a
000002b0: ea4e 063b 0b93 1e3b 687b 34bb 9b51 3d3b
000002c0: dce9 7f3b 1b46 86bb 6cec d8ba ad01 a23b
000002d0: 3b04 ac3a e684 5d3b da49 afbb b9ff 24bb
000002e0: 1042 183b 5831 87bb 0d36 163c f706 21bc
000002f0: a660 bcba 474f 883c ad54 4e3c 5892 05bc
00000300: 3547 263c afde cebb 68ab d3bb 0e78 f43b
00000310: dc53 713c b5f8 023a 282f d1bb 55df 233b
00000320: 384e 2b3c dbd6 df3b 0821 5abb 6b54 24bc
00000330: 458d e93a a91e d23b b1e2 113b f353 1437
00000340: 6729 e2bb 9786 53bb b405 a1bb 139f 00bc
00000350: abd7 483c 7ddf cf3b f4b8 8c39 9cf8 d13b
00000360: 169c f6bb 1ef0 d5bb 18e6 9f3b df9c 093b
00000370: 8502 5fbb ba5e 823b cbbc beba 51c8 ac3b
00000380: 7f81 7fbb 6d16 58ba 9d7e 09bb 25ea 9fbb
00000390: 0194 d33b 0fc7 c3bb ac12 97bb d394 ed3a
000003a0: 5f5f f63b 329b 433a 869f 8b3b 4e68 1c3b
000003b0: f7b2 253b 7f0f 64b9 d02f fbbb b2bd 2fbc
000003c0: e17b cebb 0a2f 6039 eb20 e2bb 2934 07b8
000003d0: e5ea a5bb 8adb 85bb 09b0 3abb 8e7a a53b
000003e0: 5762 873c 827e 38bc 27cf 923b 4b8a 6fbc
000003f0: 17dc ee3b 12e4 423b f4da 9a39 20db 073b

default_policy/fc_2/kernel f4 [256, 256]
0.07822055 0.044083796 -0.022587277 0.011557579 0.05910058 -0.01135568 0.056656312 -0.017750802
-0.00017397646 -0.15703411 -0.04325331 -0.004040556 -0.06779957 0.06027793 -0.030181648 -0.06709068
-0.049660556 0.07510062 0.11652732 -0.015445271 0.07876186 0.08066131 -0.12356875 -0.15638648
-0.12366559 -0.099367976 -0.016256306 -0.050927605 0.052782997 0.06837325 0.05202127 0.035724554
0.008443825 -0.06355226 0.08787612 -0.0785706 0.0770473 0.014424854 0.096285634 0.030140381
0.09639877 0.030895753 0.070520364 -0.057066653 -0.06493273 0.05384676 0.09725542 0.0027309714
-0.030827984 0.022495765 -0.022921264 0.032935306 0.15044352 0.27737638 0.016095005 0.1466999
0.0813216 -0.011752682 0.19764891 -0.012993577 0.005870635 0.016251232 -0.030800162 -0.057998624
0.022534676 0.10692248 -0.023086548 0.18587802 -0.05444065 0.02265571 0.04973848 0.05779915
-0.049629975 -0.08673048 0.012860849 0.015268707 0.045709465 -0.064455785 -0.011231753 0.05504197
-0.091857396 -0.075973436 -0.008406466 0.025024856 -0.07782888 0.013072685 -0.014744259 0.04537682
0.03432325 0.018749433 -0.009862836 0.025951438 -0.054080427 0.045147803 -0.09981785 0.006417972
0.100752585 0.0034610291 0.059136596 0.043324187 -0.032964934 -0.007090616 0.13746536 -0.089874275
-0.08846894 -0.032217495 -0.074314386 0.104720056 0.083587915 0.14454888 0.10956988 0.01122483
-0.029447613 -0.050580718 0.061978985 -0.011364923 0.010730446 -0.08013283 -0.06533579 0.12617975
-0.08224415 0.047411505 -0.000986271 0.099581115 -0.040749814 0.039315443 0.041513357 -0.010361864
0.078706406 0.13720141 0.11727908 -0.038577266 -0.03523964 -0.04612838 -0.07708877 0.13270868
0.017536147 0.0891475 -0.07491994 0.03923423 -0.12814417 0.07388976 0.062147886 0.047455538
0.0008636861 0.072247334 0.027765766 -0.044026546 -0.04131724 -0.060441695 0.055610795 -0.046932533
0.021683933 -0.09602102 -0.0036085946 -0.10228948 0.16362879 0.09589452 -0.15700725 0.011100514
0.003411824 0.12521839 -0.11275819 0.015912471 -0.13510281 0.04012818 -0.20167245 0.26099068
0.1903632 0.009655186 0.23717777 -0.026217703 -0.1622229 -0.03535271 0.05887618 -0.076345995
-0.17003934 -0.04057988 0.062158696 0.00043622573 -0.06657943 0.08561689 0.05557177 -0.2107492
0.11489306 0.057757325 0.21025313 -0.07110877 -0.06784837 0.11383754 -0.047009747 0.07348932
-0.16288258 -0.029466012 0.039635286 -0.0052204207 -0.09461583 -0.049517807 0.027740374 0.08073378
0.04453506 -0.18451509 0.016683662 -0.03132996 -0.035974197 -0.17877518 -0.045922197 -0.022015572
-0.016801998 0.1200431 -0.014684649 -0.063544996 -0.040833168 0.026193438 0.026965536 -0.013828875
-0.11556392 0.06302546 -0.027774407 0.028009543 0.014156702 0.097450905 0.02248682 0.012216464
0.03614738 0.1255073 -0.055789463 -0.08117877 -0.03419552 -0.17928423 -0.00053248194 -0.07932569
0.24625432 0.06805838 0.061289236 0.046384457 0.13918771 0.1272529 0.06939301 0.099496596
0.12483394 -0.14007069 -0.032800615 0.04719499 -0.14255305 0.06365026 0.030517474 0.03549794
-0.04579787 0.07754754 -0.01927674 0.002700816 -0.06278668 -0.0108290445 -0.008821884 0.06355172
00000000: 1932 a03d 3691 343d f408 b9bc 005c 3d3c
00000010: 7313 723d 2d0d 3abc 7310 683d 216a 91bc
00000020: 736d 36b9 8dcd 20be 622a 31bd a466 84bb
00000030: 80da 8abd fee5 763d 813f f7bc d766 89bd
00000040: de68 4bbd 5bce 993d e0a5 ee3d 290e 7dbc
00000050: e64d a13d c231 a53d 9d11 fdbd c723 20be
00000060: 6344 fdbd 7081 cbbd f22b 85bc 7799 50bd
00000070: fc32 583d 4607 8c3d 4114 553d e953 123d
00000080: f857 0a3c b027 82bd 65f8 b33d 9fe9 a0bd
00000090: faca 9d3d 3956 6c3c 6731 c53d f6e8 f63c
000000a0: b86c c53d 1719 fd3c fb6c 903d b9be 69bd
000000b0: 73fb 84bd 6c8e 5c3d da2d c73d 19fa 323b
000000c0: f88a fcbc 0a49 b83c 60c5 bbbc 2ce7 063d
000000d0: de0d 1a3e 4704 8e3e acd9 833c 8038 163e
000000e0: f08b a63d 528e 40bc 7a64 4a3e 03e3 54bc
000000f0: 755e c03b 4e21 853c 9f50 fcbc f78f 6dbd
00000100: a49a b83c 2cfa da3d 0020 bdbc cf56 3e3e
00000110: 29fd 5ebd 7898 b93c 94ba 4b3d cdbe 6c3d
00000120: cd48 4bbd c09f b1bd 4fb6 523c 9929 7a3c
00000130: d939 3b3d 6501 84bd 6305 38bc b073 613d
00000140: bb1f bcbd f697 9bbd 46bb 09bc ed00 cd3c
00000150: bf64 9fbd d12e 563c e891 71bc 0bdd 393d
00000160: 8996 0c3d 6998 993c bc97 21bc 1c98 d43c
00000170: 7083 5dbd e7ec 383d 4d6d ccbd da4d d23b
00000180: 5f57 ce3d 6fd2 623b 3739 723d b474 313d
00000190: 3d06 07bd 6658 e8bb b8c3 0c3e 0110 b8bd
000001a0: 342f b5bd 7ef6 03bd 2432 98bd 7877 d63d
000001b0: 2430 ab3d 9f04 143e 2c66 e03d 59e8 373c
000001c0: 1f3c f1bc ba2d 4fbd addd 7d3d f133 3abc
000001d0: c1ce 2f3c ae1c a4bd c5ce 85bd 4435 013e
000001e0: 9f6f a8bd 9132 423d c345 81ba 2ff1 cb3d
000001f0: 47e9 26bd 3b09 213d e909 2a3d cfc4 29bc
00000200: d330 a13d 877e 0c3e 0430 f03d 3203 1ebd
00000210: 7157 10bd 1df1 3cbd b8e0 9dbd c9e4 073e
00000220: f7a7 8f3c f792 b63d a06f 99bd 12b4 203d
00000230: 3a38 03be 8453 973d c88e 7e3d bd60 423d
00000240: fe68 623a 69f6 933d 0875 e33c 2e55 34bd
00000250: 443c 29bd b691 77bd 25c8 633d 543c 40bd
00000260: 81a2 b13c aba6 c4bd 2c7e 6cbb 267d d1bd
00000270: 4e8e 273e 5964 c43d 82c6 20be eede 353c
00000280: e898 5f3b 4039 003e c4ed e6bd df5a 823c
00000290: 6458 0abe 725d 243d 3983 4ebe 92a0 853e
000002a0: 92ee 423e c930 1e3c bbde 723e 82c6 d6bc
000002b0: c31d 26be 01ce 10bd 2628 713d 4a5b 9cbd
000002c0: cb1e 2ebe 1737 26bd 1e9a 7e3d 3ab5 e439
000002d0: cc5a 88bd e857 af3d 399f 633d a3ce 57be
000002e0: 0d4d eb3d f292 6c3d 994c 573e 7aa1 91bd
000002f0: 16f4 8abd a823 e93d 4b8d 40bd 9281 963d
00000300: b1ca 26be b562 f1bc 9c58 223d 1010 abbb
00000310: f2c5 c1bd 2fd3 4abd c83f e33c c157 a53d
00000320: 656a 363d 86f1 3cbe 2dac 883c d853 00bd
00000330: ae59 13bd d710 37be ea18 3cbd 005a b4bc
00000340: 58a4 89bc 28d9 f53d e297 70bc e123 82bd
00000350: ae40 27bd 9f93 d63c d4e6 dc3c 8192 62bc
00000360: c7ac ecbd 7e13 813d 2787 e3bc 4574 e53c
00000370: 83f1 673c 5794 c73d 4836 b83c 9027 483c
00000380: 460f 143d fc84 003e 7e83 64bd 0e41 a6bd
00000390: 9a10 0cbd 4996 37be 4296 0bba 8275 a2bd
000003a0: 182a 7c3e 3162 8b3d 6c0a 7b3d a1fd 3d3d
000003b0: 3987 0e3e 964e 023e ec1d 8e3d dfc4 cb3d
000003c0: f0a8 ff3d b16e 0fbe f059 06bd 894f 413d
000003d0: 6df9 11be 115b 823d c8ff f93c 4a66 113d
000003e0: 8c96 3bbd 3fd1 9e3d 41ea 9dbc 2c00 313b
000003f0: 4e96 80bd 4e6c 31bc aa89 10bc 6727 823d

default_policy/fc_2/bias f4 [256]
0.006222787 0.007500732 0.0002836469 -0.0011977989 0.0054113423 -0.008310955 0.0024830177 0.018403413
-0.011278725 0.009318332 0.005553266 0.008878406 0.0076630428 -0.01018352 -0.00869297 0.006624953
0.0017577972 0.022647107 -0.00023888669 0.0007771558 0.015386426 0.0067194384 -0.010828138 0.017612243
-0.005969389 -0.009419363 -0.0058354493 -0.0076247095 0.013326894 -0.0033090655 0.006509032 3.3764832e-06
-0.012875393 0.013406369 0.015187372 -0.018420422 0.0030376741 0.0014920492 -0.011881644 -0.0037788071
-0.005652707 -0.0046625226 0.023313396 -0.0027498882 -0.01069407 0.019237923 0.0013724063 -0.0054329294
-0.005058982 -0.011229566 0.008247875 0.0077256574 0.002609752 0.0066706995 0.010588534 0.008025419
0.0006718083 -0.009006997 0.01441474 -0.009795042 0.0038958879 0.0029579424 -0.003980706 -0.020679297
-0.0013734961 0.017975044 -0.013428519 0.0020321424 -0.011078101 0.0089285 0.00778494 -0.0017474825
-0.000348103 -0.006993079 0.005086311 0.0012943397 -0.020337684 0.002756565 0.0061593754 0.011757265
0.0037087225 -0.011298559 0.001689535 0.0032777353 0.007903967 -0.0038586394 -0.0061122575 0.015428509
-0.0075692683 0.0017996571 0.012580345 0.0012072905 -0.0028483951 0.00016312614 0.0036005464 0.013354106
-0.006996966 -0.02027511 0.013701711 0.0015571547 -0.0014342769 -0.015217353 -0.0033463226 0.015013921
0.009536251 0.0013660392 -0.0009952387 -0.013778569 -0.017901411 0.005075631 -0.009142255 0.0010127344
0.0026934985 -0.009995197 -0.005630697 0.0017464447 -0.019336853 0.000614744 0.008166598 -0.0075569144
-0.021645593 0.000106316635 -0.011269872 -0.004624727 -0.006392652 0.007720762 -0.0018658936 0.00027697685
0.0020762265 0.011155889 -0.006468485 0.024027124 0.006519867 0.00057102187 0.0030229257 0.015560264
0.0033368897 0.019785034 0.008190958 -0.0071747005 -0.00051841314 -0.0089518335 0.011189065 0.0010113566
-0.0025833498 0.0024778687 -0.008362366 -0.015443078 0.000298885 -0.0015297164 -0.012565143 -0.0071333074
0.0015928042 -0.008917593 -0.015276082 -0.0031799534 0.018536443 -0.00091368787 -0.01650609 -0.018503888
-0.0020155539 -0.008067689 -0.011719731 -0.0061631273 -0.001347204 -0.002376346 -0.01325726 0.01778817
0.009369601 -0.013177315 0.008938301 -0.011856446 -0.012663361 -0.009818334 0.014448212 -0.0074251858
-0.0050673746 0.006562254 -0.00543043 -0.0011811581 0.015812114 -0.0019294393 -0.011327716 -0.0060981065
0.018609595 -0.013384084 0.012067443 -0.017829748 -0.0046792515 0.0007881908 -0.004120041 0.010878392
0.011445878 -0.017223453 -0.004597153 0.0016667353 -0.005746217 -0.004380402 -0.0061979773 -0.011360809
-0.017116215 -0.012287263 0.02386225 0.01376203 0.015731262 -0.012130255 -0.0018697787 -0.010266897
-0.01763132 -0.0020372632 -0.00632881 -0.013865481 0.014977974 0.016828703 -0.0019214336 -0.009979469
0.0015552201 0.0038006187 -0.0040483093 0.0152378585 -0.01291033 0.0028429157 0.011453473 -0.0022683858
0.0065230173 -0.000121444114 -0.014904177 0.0033188798 -0.008661199 0.0068210424 0.009184476 -0.006073036
0.01097049 0.014267543 -0.0095298905 0.00016678758 -0.021018093 0.002605629 -0.007352265 0.0012853426
-0.02566997 -0.006295268 -0.019106185 0.014721713 -0.007935707 0.019763898 0.0058986438 -0.0008612462
0.0011949554 0.008047178 -0.008311269 0.022100268 0.0054403525 -0.017389355 -6.953767e-05 0.005369243
00000000: 85e8 cb3b b3c8 f53b 71b6 9439 76ff 9cba
00000010: a151 b13b ac2a 08bc 20ba 223b c1c2 963c
00000020: 67ca 38bc ebab 183c 2cf8 b53b bc76 113c
00000030: 431a fb3b c7d8 26bc f56c 0ebc 2216 d93b
00000040: e365 e63a 6d86 b93c a87d 7ab9 0bba 4b3a
00000050: 5917 7c3c bc2e dc3b 8168 31bc 8d47 903c
00000060: dd9a c3bb ac53 1abc 4c37 bfbb b3d8 f9bb
00000070: 0b59 5a3c e8dc 58bb b849 d53b 8a97 6236
00000080: 50f3 52bc 63a6 5b3c 75d4 783c 6de6 96bc
00000090: b713 473b dd90 c33a 3aab 42bc dda5 77bb
000000a0: 583a b9bb 13c8 98bb bcfb be3c 7837 34bb
000000b0: 2e36 2fbc d998 9d3c 50e2 b33a b706 b2bb
000000c0: d1c5 a5bb 37fc 37bc 1822 073c 8327 fd3b
000000d0: 5f08 2b3b e295 da3b 887b 2d3c 0c7d 033c
000000e0: 4b1c 303a 1592 13bc cd2b 6c3c 627b 20bc
000000f0: 2752 7f3b 0ada 413b 9570 82bb a167 a9bc
00000100: e206 b4ba 6640 933c 4a03 5cbc b12d 053b
00000110: ec80 35bc d848 123c cf18 ff3b c80b e5ba
00000120: 9881 b6b9 3326 e5bb 12ab a63b d5a6 a93a
00000130: 379b a6bc 7da7 343b 96d4 c93b 8ba1 403c
00000140: 0a0e 733b 971d 39bc 6373 dd3a 46cf 563b
00000150: a47f 013c 3ae1 7cbb 5549 c8bb dbc7 7c3c
00000160: a007 f8bb 79e2 eb3a cb1d 4e3c f23d 9e3a
00000170: 24ac 3abb d70c 2b39 25f7 6b3b 2ecb 5a3c
00000180: ce46 e5bb fd17 a6bc 247d 603c 7119 cc3a
00000190: 59fe bbba 3452 79bc fa4d 5bbb f3fc 753c
000001a0: f03d 1c3c ab0c b33a ab72 82ba 82bf 61bc
000001b0: fba5 92bc 7b51 a63b 66c9 15bc babd 843a
000001c0: 6885 303b e5c2 23bc b681 b8bb f6e8 e43a
000001d0: 5268 9ebc c626 213a 32cd 053c fe9f f7bb
000001e0: 1952 b1bc 4ff6 de38 45a5 38bc 068b 97bb
000001f0: 7479 d1bb 72fe fc3b 0091 f4ba 3437 9139
00000200: 4d11 083b 31c7 363c 96f5 d3bb 88d4 c43c
00000210: 9ca4 d53b a1b0 153a 471c 463b 7af0 7e3c
00000220: b8af 5a3b 3914 a23c 5e33 063c c019 ebbb
00000230: 1ee6 07ba b6aa 12bc 5752 373c 7f8f 843a
00000240: 6b4d 29bb bd63 223b 4e02 09bc f704 7dbc
00000250: aab3 9c39 c480 c8ba 08de 4dbc 85be e9bb
00000260: a4c5 d03a 191b 12bc 8848 7abc c466 50bb
00000270: bdd9 973c 8e84 6fba c837 87bc 7795 97bc
00000280: 6217 04bb 572e 04bc 1d04 40bc 0ff4 c9bb
00000290: aa94 b0ba 78bc 1bbb fb34 59bc 7fb8 913c
000002a0: f482 193c aae5 57bc f471 123c 8a41 42bc
000002b0: fc79 4fbc 14dd 20bc 32b8 6c3c f94e f3bb
000002c0: 380c a6bb 2d08 d73b c0f1 b1bb 17d1 9aba
000002d0: 6888 813c 3de5 fcba e297 39bc a0d2 c7bb
000002e0: 2673 983c eb48 5bbc 86b6 453c b10f 92bc
000002f0: 6854 99bb 979e 4e3a 6901 87bb 483b 323c
00000300: 7e87 3b3c 3318 8dbc b7a3 96bb 5b76 da3a
00000310: c34a bcbb 7a89 8fbb 6718 cbbb b022 3abc
00000320: 4e37 8cbc 8450 49bc c47a c33c 237a 613c
00000330: d9de 803c fabd 46bc 5d13 f5ba 7d36 28bc
00000340: 8f6f 90bc 9b83 05bb e861 cfbb 0b2c 63bc
00000350: 2d66 753c 59dc 893c 9dd8 fbba ed80 23bc
00000360: 87d8 cb3a cd13 793b aea7 84bb 36a8 793c
00000370: d985 53bc 3650 3a3b 59a7 3b3c 33a9 14bb
00000380: 09bf d53b d0af feb8 a630 74bc 9081 593b
00000390: b4e7 0dbc 0d83 df3b 7c7a 163c 5200 c7bb
000003a0: 92bd 333c 6ac2 693c 4223 1cbc b3e3 2e39
000003b0: 232e acbc 33c3 2a3b 45eb f0bb f178 a83a
000003c0: d449 d2bc 8948 cebb 9384 9cbc 5733 713c
000003d0: c504 02bc e6e7 a13c 6949 c13b 41c5 61ba
000003e0: 0da0 9c3a 50d8 033c fd2b 08bc 9f0b b53c
000003f0: fc44 b23b 1f74 8ebc c1d4 91b8 7af0 af3b

default_policy/fc_out/kernel f4 [256, 4]
-0.0014701987 -0.0126255145 -0.0638276 0.00243401 -0.037828222 0.016638506 -0.006862014 -0.019426566
0.00017945626 -0.0020327137 -0.01708863 0.038051892 -0.002117957 0.1257766 0.039763592 -0.055995077
0.018382214 -0.09053039 -0.07449359 -0.018781047 0.0052459026 0.061994433 0.032526296 -0.03238838
0.0016464358 -0.023528144 -0.023759663 -0.047243413 -0.0028291098 0.117477804 -0.0414474 -0.01967614
0.0013993812 0.08596105 -0.026025794 0.040776525 0.0007220939 -0.007580364 -0.020772956 -0.035902206
-0.012542403 0.05584581 -0.032171536 -0.033909455 -0.028725378 -0.05040829 0.055019226 0.0043597724
-0.01097232 0.049992036 -0.038772777 -0.014352985 0.035735883 -0.010291205 0.04863697 0.02419474
0.00015948761 0.0046503427 -0.024728287 0.05712713 0.02962697 0.0701559 0.028379664 -0.007899334
-0.027191848 0.0086519215 0.03267418 0.061960872 0.0004347687 -0.016975483 -0.013250285 0.059273567
-0.03556339 -0.036458783 0.024224572 0.033664715 -0.008832686 -0.06152308 0.047683246 -0.005622224
-0.04269366 -0.016237924 -0.058114465 -0.054763254 -0.0016411229 0.014670838 -0.055981696 -0.03675331
0.0007977271 0.025159433 -0.07378333 0.030578103 -0.0036838157 -0.022230772 -0.031072348 0.01621703
0.0080744205 -0.0029874353 0.07526844 0.0012446776 -0.0132404715 -0.037509087 0.017768996 0.010908485
0.0014627756 -0.06886692 0.030430494 0.043714527 0.01363704 -0.04084567 0.064340964 0.02261858
-0.06239379 -0.03759997 -0.07447938 0.011601851 -0.031415686 -0.027779404 0.031817343 0.038157325
0.0020828275 -0.11235215 0.062947534 0.010152514 -0.06432971 0.0086816745 0.05725218 0.0043498073
-0.0005146519 0.022220453 0.048393514 0.052720267 -0.018661393 -0.07073855 -0.074041 -0.017062234
-0.03954213 -0.13197486 -0.039621502 -0.022084428 -0.01465602 -0.1001188 0.0025283333 0.02994815
0.0033630205 -0.08332757 0.041672576 -0.017552173 0.0013252712 -0.003290288 -0.010463251 -0.002107712
0.0041688303 0.07108041 0.08751565 -0.023824686 0.0017632362 -0.020611208 -0.047202628 0.09539441
-0.0005161315 0.021410633 0.02386155 0.0041928943 -0.0010870489 0.0152247865 -0.042894177 -0.09291177
-0.0010392651 -0.0027971645 0.03917503 0.02972207 -9.436622e-05 0.025009556 0.0047737164 -0.082205854
0.018203052 0.0027806477 0.064224854 -0.015028086 8.998982e-05 0.11175518 -0.04766916 -0.006118285
-0.0035876466 0.008041923 0.018741157 0.04173063 0.00021756922 0.0043225344 0.07863363 -0.020015433
-0.03022991 0.047545742 0.060208518 0.011014395 -0.001069642 0.056458294 0.004874232 0.028398566
0.03711573 -0.03111075 -0.041243866 -0.0020237586 -0.008877017 0.03369376 -0.037784234 -0.020846717
0.0199456 -0.05076547 0.008191215 0.028560994 -0.00013508946 -0.010938499 0.055671412 0.03338106
0.0029395763 -0.0064552273 0.0011761357 -0.07833219 0.0015898186 0.008005767 -0.045086592 -0.10633852
-0.0036236255 -0.022176443 -0.049090166 0.034616467 0.00022451395 0.0051932763 0.09447468 0.05081547
-9.540846e-05 -0.07166894 0.030489644 -0.008304398 0.0013837136 0.0017296396 0.01641718 -0.04847775
-0.0003409346 0.0038155336 0.056479465 0.061768606 -0.0048376457 0.02357677 0.10368758 -0.044376522
-0.00436226 0.013573664 -0.05207901 -0.0051303674 9.775719e-05 -0.004750409 0.09581699 0.060832255
00000000: afb3 c0ba 3fdb 4ebc 0bb8 82bd e983 1f3b
00000010: c4f1 1abd 7a4d 883c bfda e0bb 7624 9fbc
00000020: 6c2c 3c39 4737 05bb 74fd 8bbc 4ddc 1b3d
00000030: 6ccd 0abb 95cb 003e 26df 223d 185b 65bd
00000040: 4c96 963c ff67 b9bd 1890 98bd b6da 99bc
00000050: d2e5 ab3b e0ed 7d3d 4b3a 053d aea9 04bd
00000060: 38cd d73a 18be c0bc a0a3 c2bc 4f82 41bd
00000070: 9668 39bb 3498 f03d c0c4 29bd db2f a1bc
00000080: 716b b73a 590c b03d 0c34 d5bc 4905 273d
00000090: e74a 3d3a b464 f8bb 0c2c aabc 310e 13bd
000000a0: a77e 4dbc 93be 643d 4dc6 03bd a4e4 0abd
000000b0: 7c51 ebbc ec78 4ebd d75b 613d 6cdc 8e3b
000000c0: 3fc5 33bc 73c4 4c3d 34d0 1ebd c828 6bbc
000000d0: ca5f 123d 719c 28bc 8f37 473d 0c34 c63c
000000e0: 213c 2739 e761 983b fa92 cabc 23fe 693d
000000f0: 42b4 f23c e6ad 8f3d 787c e83c 356c 01bc
00000100: 70c1 debc cac0 0d3c 5cd5 053d afca 7d3d
00000110: abf1 e339 2b10 8bbc b917 59bc d7c8 723d
00000120: ebaa 11bd ce55 15bd 9c72 c63c 03e4 093d
00000130: f8b6 10bc a0ff 7bbd 824f 433d a23a b8bb
00000140: 8cdf 2ebd 6505 85bc 6f09 6ebd 6f4f 60bd
00000150: f21a d7ba f45d 703c 104d 65bd a48a 16bd
00000160: 8f1e 513a 281b ce3c b71b 97bd ee7e fa3c
00000170: 2c6c 71bb 4f1d b6bc 708b febc 94d9 843c
00000180: 934a 043c d9c8 43bb 5726 9a3d 7324 a33a
00000190: 90ee 58bc 21a3 19bd 4990 913c 81b9 323c
000001a0: 9bba bf3a 1a0a 8dbd 5f49 f93c 010e 333d
000001b0: e46d 5f3c ca4d 27bd 32c5 833d 9a4a b93c
000001c0: a190 7fbd 6d02 1abd a588 98bd b115 3e3c
000001d0: bcad 00bd a291 e3bc e752 023d db4a 1c3d
000001e0: 0c80 083b e218 e6bd a3ea 803d bb56 263c
000001f0: 4cbf 83bd 953d 0e3c 4381 6a3d d488 8e3b
00000200: b4e9 06ba ab07 b63c 4738 463d 35f1 573d
00000210: c7df 98bc 5fdf 90bd cfa2 97bd 19c6 8bbc
00000220: eef6 21bd 6b24 07be 284a 22bd 67ea b4bc
00000230: ce1f 70bc 160b cdbd 65b2 253b d355 f53c
00000240: 1f66 5c3b a5a7 aabd ddb0 2a3d 93c9 8fbc
00000250: b9b4 ad3a dfa1 57bb 0e6e 2bbc 8a21 0abb
00000260: af9a 883b 9b92 913d 683b b33d fd2b c3bc
00000270: 641c e73a d6d8 a8bc 8b57 41bd 255e c33d
00000280: 004d 07ba 5a65 af3c 4c79 c33c 8c64 893b
00000290: 4f7b 8eba 6271 793c ceb1 2fbd 8748 bebd
000002a0: f337 88ba a250 37bb ff75 203d b37b f33c
000002b0: 7be6 c5b8 d7e0 cc3c d66c 9c3b 8b5b a8bd
000002c0: 911e 953c 873b 363b 5288 833d 5c38 76bc
000002d0: ebb8 bc38 e6df e43d bd40 43bd e57b c8bb
000002e0: b91e 6bbb 45c2 033c 0e87 993c bded 2a3d
000002f0: 4b23 6439 0ca4 8d3b ab0a a13d 68f7 a3bc
00000300: b7a4 f7bc 53bf 423d 359d 763d b975 343c
00000310: 3b33 8cba d040 673d 06b8 9f3b 1ca4 e83c
00000320: aa06 183d f9db febc 54ef 28bd 09a1 04bb
00000330: e870 11bc 7802 0a3d a4c3 1abd bcc6 aabc
00000340: f464 a33c 74ef 4fbd 7234 063c bff8 e93c
00000350: cda6 0db9 6437 33bc b507 643d 94ba 083d
00000360: e8a5 403b 5f86 d3bb 9128 9a3a a16c a0bd
00000370: 7661 d03a 9f2a 033c b8ac 38bd 03c8 d9bd
00000380: 597a 6dbb 5fab b5bc c512 49bd ffc9 0d3d
00000390: 816b 6b39 5c2c aa3b f17b c13d e223 503d
000003a0: 0716 c8b8 2ac7 92bd 6bc5 f93c 2b0f 08bc
000003b0: b95d b53a 13b5 e23a 527d 863c 9b90 46bd
000003c0: 78bf b2b9 080e 7a3b 0357 673d 1401 7d3d
000003d0: 1d85 9ebb 1224 c13c 275a d43d 28c4 35bd
000003e0: 4af1 8ebb 1364 5e3c cd50 55bd a41c a8bb
000003f0: fe02 cd38 52a9 9bbb b33b c43d 3e2b 793d

default_policy/fc_out/bias f4 [4]
-0.0050869095 -0.016486337 -0.06959761 -0.0075048986
00000000: 17b0 a6bb 5b0e 87bc 3189 8ebd a7eb f5bb
